results/LSTM.pt (torch, 44970 bytes, 5 tensors)

lstm.weight_ih_l0 f4 [200, 1]
00000000: bad2 3d3e 45a1 aa3e d741 d13d 4d00 8a3e
00000010: 85fb 263f dfa7 953e dff2 adbe eda9 623e
00000020: 723a 22be 8bc0 99be 1d5d b13e aa23 ab3b
00000030: 55dc a23e f9be 5b3e c70b 893d 32e7 293d
00000040: 3bb3 7d3e a5fa 47bd a2e9 e43d 0c65 863e
00000050: 4aad 303e aa9b 0d3e 5df8 97bc 8615 be3e
00000060: 5dad 5ebc 03a3 6f3c 7900 0dbd 190a a93d
00000070: d623 66bd 695f d43c 162c 583e 989b 64be
00000080: eb54 9c3e a764 933e cd07 da3d df04 5d3c
00000090: 3fe3 3b3e 5808 b53d 4c63 48bd 3e64 5b3e
000000a0: 9a65 033e a19a ae3d 2cf8 cf3d 7c0b bb3e
000000b0: 6438 f6bd af3d b3be 652b a23e 27b7 66b9
000000c0: 18b9 e63d 16b6 033e 3b81 58bd 64d1 033e
000000d0: c457 dcbc ba88 793e 729f fa3e 6420 973e
000000e0: 106e 53be 615d d63d 5eec f0bd a619 9cbe
000000f0: 7050 623e c90f f7bd 7939 673e e34e 953d
00000100: 2da9 3f3d d6b0 063d 78e3 723e d1ef a8be
00000110: 40a6 9c3d 1b65 fd3d 48e3 c03e 5722 393e
00000120: f110 1d3e 763d f23d 0e80 5dbe 3438 1dbd
00000130: a004 c2bd 9ef8 523e ffe1 0bbd f444 903e
00000140: bf8c 27bd e130 3abe 7493 803e a1e5 053e
00000150: 9bd3 743e 8395 ddbd 116d 00bd 26a0 23be
00000160: 2c5b 34bf c963 8f3e 7129 fc3d 38e0 ac3d
00000170: 0688 043e bc7a af3e 3908 aabe c429 8cbe
00000180: e4cb c93e 3e14 92bd 67ed 0ebc 05a7 e13b
00000190: 951c 8f3d e4e4 953e 5fa0 323e 86ff 233d
000001a0: 00f8 e4be 9f4e babe 3670 61be 2844 80be
000001b0: cdda 87be dce7 5dbe 8e25 ffbc b6a4 a33b
000001c0: 59fa 1dbe 2391 d0be 14c5 89bd f4f2 2c3d
000001d0: 0df2 35be eb0b 97be fc95 023e dad1 9fbe
000001e0: eea8 5c3e ed83 da3d e07b 43be 2587 cabe
000001f0: 9c56 6dbe d9bf 003d 34ef 77bd 61ac b5be
00000200: 5b83 573e 39ee 283e a929 893e 52ae 693c
00000210: 8afc b7be 6775 cb3e 54fc 79be e0d0 ebbd
00000220: dc27 d6be e3a1 c6bd b00b 073f 9d4a 9cbe
00000230: 1a24 5b3e edee a03b 4cdc 103d 531f f33d
00000240: 3f99 1ebe fb4a 33bd ba3b 983e d07c 073e
00000250: cadb 313d 235b bcbe ee7f 083e 1b57 4c3e
00000260: 9599 253e 838b bb3d 8dec 8e3f aa32 373e
00000270: d5ce 67be b0a1 613e 785e 9abe d0b9 9bbe
00000280: 2e3d e23e 24e8 143c 6df4 9c3e 3b59 823d
00000290: 0e8f 863d 27f8 4d3d e38f ed3d 77ab ad3c
000002a0: fc39 8f3e 33dc 2b3e 7c77 583e cefc 553e
000002b0: 2f44 043e 3dc4 8b3e e59b 1c3d b618 543d
000002c0: 6960 d9bd 6845 793e 07c4 0b3d 1b41 d43d
000002d0: 94fe 353e b2d7 c5bc 92eb 7e3e 00f7 8c3e
000002e0: c2af 6b3e eebb 023c 0bd6 4e3e 5e5c c7bc
000002f0: 30db 4abe f657 ad3e 3493 943d 1fbb 0f3e
00000300: cd10 193e 4c4f d33e 1d5b 79be 04f1 bdbe
00000310: 652c 623e ef78 12bd 045e f53d 1ad8 863e
0.18537417 0.33326164 0.10217636 0.26953354 0.6522754 0.29229638 -0.33974358 0.22135134
-0.15842608 -0.3002971 0.34641352 0.0052227573 0.31808725 0.21459569 0.066916995 0.04148025
0.24775402 -0.048823018 0.111773744 0.26248968 0.17253605 0.13828912 -0.018551046 0.37125796
-0.013591138 0.014626267 -0.03442428 0.08253879 -0.05618652 0.025924401 0.21110567 -0.2232498
0.30533537 0.2878773 0.10646019 0.013489931 0.18348406 0.08839482 -0.048922822 0.21424958
0.12831727 0.08525587 0.10154757 0.365322 -0.120224744 -0.35007998 0.31673732 -0.00022002739
0.112657726 0.12862429 -0.05285762 0.12872845 -0.026897319 0.24368563 0.48949772 0.295169
-0.20647454 0.10467029 -0.117638335 -0.30488318 0.22100997 -0.12063558 0.22580518 0.07290437
0.046792198 0.032883488 0.23719585 -0.32995465 0.07648897 0.123728 0.37673402 0.18079506
0.15338494 0.11828129 -0.2163088 -0.038383678 -0.094735384 0.20602652 -0.034151074 0.28177607
-0.04090571 -0.18182708 0.25112498 0.13075878 0.23908846 -0.10819533 -0.031354014 -0.1597906
-0.7045162 0.28005818 0.12312592 0.08441204 0.12942514 0.34273326 -0.33209398 -0.27375615
0.3941337 -0.07132767 -0.008723593 0.0068863654 0.069878735 0.29276192 0.17443989 0.040038608
-0.4472046 -0.36388108 -0.22015461 -0.25052 -0.2653412 -0.21670479 -0.031145837 0.0049940003
-0.15427531 -0.4073573 -0.06727043 0.042223886 -0.17768116 -0.2950128 0.12752527 -0.31214792
0.21548817 0.10669694 -0.19090223 -0.39556232 -0.2317757 0.03143296 -0.060530856 -0.35483077
0.21046202 0.16497125 0.26789597 0.014262753 -0.3593486 0.39738008 -0.24412662 -0.11514449
-0.41827285 -0.09698846 0.5275221 -0.30525675 0.2140049 0.0049112947 0.03536634 0.11871209
-0.15488146 -0.04377268 0.29733068 0.13231206 0.043422498 -0.36788282 0.13330051 0.19955103
0.16171868 0.09157469 1.116594 0.1789042 -0.22637494 0.22034335 -0.301502 -0.304152
0.441873 0.00908855 0.30655232 0.063646756 0.06570254 0.050285485 0.1159971 0.021199925
0.27973926 0.16783218 0.2113933 0.20897219 0.12916635 0.27298155 0.03823461 0.05178138
-0.10614092 0.24342883 0.034122493 0.103639804 0.17772895 -0.024150703 0.2489455 0.27532196
0.23016265 0.007979376 0.20198838 -0.024336036 -0.19810176 0.3385617 0.07254639 0.14036225
0.14947815 0.41271436 -0.24351163 -0.37097943 0.22087248 -0.035759863 0.11980823 0.26336747

lstm.weight_hh_l0 f4 [200, 50]
00000000: 4570 20be ee56 babd 58df bf3d 15a3 143d
00000010: 9698 e33d 10c6 11bd a87c f5bd 4eab eebd
00000020: 90f6 88bd 1c86 4bbb c24d 083e 6567 883d
00000030: 7e12 a9bd 5d6f 3cbd 4dfb 15bd ccda f63d
00000040: 3d00 713d 9eaf 9dbd 2f66 f63c 3168 51bc
00000050: 3c9b 13be 5856 9d3d ab48 47bd 2b91 f03c
00000060: 1164 b2bd 1125 a63d b468 d83d 6499 b63d
00000070: 0989 acbd 9446 35be 6a23 31be ca10 f83d
00000080: 0365 dc3d a3c4 a93d be12 c33d 203f a63d
00000090: 094a 343d 48d7 1dbe a9c3 69be 6ddf bbbd
000000a0: 5f11 2d3d 9405 bebd 8071 5fba 3ad3 03be
000000b0: c698 4cbd 2a8e bdbd e49e edbd 576a 663d
000000c0: 0fa4 613c 8630 133e d02c 35bd e953 dbbd
000000d0: 784a 0ebd edd7 6dbd 3cf9 413c ea86 08be
000000e0: 2e6f 823d 5dd9 f7bd e246 633d 0ee8 313d
000000f0: f54c c33d d9fb e2bd d847 de3d edf0 60bd
00000100: 9ef3 573d b6eb 0c3e 4ba2 3abb bf0c 88bb
00000110: a1ec fabc ef41 ffbd f0a9 903d a965 09be
00000120: 4b82 bf3d 93f6 f13d 4213 3b3e 355c ddbc
00000130: febb d3bd fe09 003d bf33 d53d 2510 18be
00000140: e0d5 2cbd d8e9 b9bd c157 65bc a655 89bd
00000150: b214 99bd 5da1 08bd 07b3 a7bd 5888 c63d
00000160: 4401 b9bd 22f5 e4bc 7e25 a1bb 7436 4dbd
00000170: 7394 03be a774 0bbe 2c22 9e3d 9b50 4cbd
00000180: 2c5b 7bbd d473 c8bc 5058 babc cec2 8abc
00000190: b3ce 883c 5634 43bc f2a3 43bd 1bc9 40bd
000001a0: d698 08be 87d3 c23d eb48 8bbd 6a69 0c3c
000001b0: 4e35 5fbd 8b51 2a3d 433e c03d 7a06 873d
000001c0: a765 1bbe ec21 4d3d 52d6 083e d93b 3b3d
000001d0: 787d af3d 9383 b13d 4073 46bb 515b a03b
000001e0: f872 89bd 0a16 1dbc ca14 d63d 586a 6a3d
000001f0: 4157 6bbd 3d35 debd 885f b9bd 5fc7 1fbe
00000200: 1b57 bfbd a036 8bbc cc50 c43d ebe7 d6bb
00000210: 081d 09be ca9e b0bd 46f7 363d 3b0c cbbd
00000220: 7ac6 bebc 01f2 693d f17d 0abe ae01 37bd
00000230: bcf5 693b 6e35 5cbc bb4d 9bbd 1350 c3bd
00000240: 747e a1bd 1b6f c73a 4632 2f3e bf69 92bd
00000250: 2068 bdbd 6db2 e83c d53a bb3c a0b2 833d
00000260: 2b5f c23d 5c10 803d b26b afbd 841d c83c
00000270: 3564 093d d071 5abc 18c6 0fbe 59e9 fc3c
00000280: a4dd d9bc 57fe 9abd f285 d3bd 4cf1 a43b
00000290: 1fbc 313d 0b98 993c 9601 4e3d 25bf 4abe
000002a0: 8c25 1abe c454 443c 68e8 dd3d 7632 833d
000002b0: c683 a8bd 20a6 5cba 6d74 96bd 7734 a6bd
000002c0: d300 a03c 2126 c33d 405a 223e d719 1ebe
000002d0: dc62 3a3d 8d2a 65bd 4d34 843d a2f0 e53d
000002e0: 9721 d43b af92 393e 8b22 10be 7a21 debd
000002f0: 3f68 ec3d e413 82bc 5032 edbc 7cbd a3bd
00000300: 4663 013e 7012 423d b75c cdbc 4e80 cebd
00000310: bc60 f1bd 8757 073d 386a cb3d 9972 50bd
00000320: 0ba4 f8bb e3b5 093e 3ccf cf3c 63a2 b83d
00000330: 64ac 11be c0fd 41be 3d2d 45bd d9b8 3fbe
00000340: 8c17 653d 832c 583e ee0a 57be 8652 d4bd
00000350: b24e 963c 7d1b 893d d440 ed3d 22d8 1cbd
00000360: ffcf afbd fa15 41bd 1def 74bc bb86 17be
00000370: aec6 a43d a2f8 0a3d f5da c0bd 4d50 683d
00000380: ac11 1f3e c022 763d d2fa 993c 7aaa 28be
00000390: f2d6 ecbc 7033 023e 4526 0b3e 4ebf 18be
000003a0: 6f08 01be 310b 2a3e 8867 3fbe 5409 e73b
000003b0: 27ea a8bd 649a 903d 2908 7bbe 0d01 9abd
000003c0: f21c 16bc fd58 4a3e 24d0 92bd e565 563e
000003d0: 1755 8a3e 6294 7a3e ba45 9f3b c186 8f3d
000003e0: 4673 783c 95d1 c6bd c067 a83c 9933 cbbd
000003f0: fceb cebd d660 5a3d 1b26 973c 3980 c2bc
-0.15667827 -0.09098612 0.09368771 0.03628834 0.11113088 -0.035589278 -0.11986667 -0.116537675
-0.06687653 -0.0031055277 0.13310912 0.06660346 -0.0825548 -0.04600464 -0.036616612 0.12053451
0.058838118 -0.07699512 0.030078022 -0.012781189 -0.14414686 0.076824844 -0.048653286 0.029366096
-0.087104924 0.081125386 0.105668455 0.08915976 -0.08424575 -0.17702705 -0.17298666 0.12112577
0.10761454 0.082894586 0.09525059 0.08117509 0.044015918 -0.15414155 -0.22828545 -0.091734745
0.042252894 -0.09278408 -0.0008523688 -0.12873545 -0.049950384 -0.09255631 -0.116025716 0.056253757
0.013772025 0.14373979 -0.04423219 -0.10709364 -0.034738988 -0.05806725 0.011839207 -0.13332716
0.06368862 -0.12102006 0.05548752 0.043434195 0.09536163 -0.110831924 0.10853547 -0.054917265
0.052722566 0.13761792 -0.0028478082 -0.00415191 -0.030630412 -0.12463748 0.07063663 -0.13417687
0.09351023 0.118146084 0.18269065 -0.027021507 -0.10338591 0.03125953 0.104102604 -0.14849909
-0.042196155 -0.09077805 -0.013997973 -0.06705789 -0.074746504 -0.033357013 -0.08188444 0.09693974
-0.090334445 -0.02794892 -0.0049177995 -0.05010076 -0.12849598 -0.13618718 0.077213615 -0.04988156
-0.061366245 -0.024469294 -0.022747189 -0.016938593 0.016700124 -0.011914333 -0.047763772 -0.04706679
-0.13339552 0.09513002 -0.068010174 0.008570055 -0.054494195 0.04158167 0.093868755 0.06593032
-0.15175496 0.05008118 0.13363007 0.045711372 0.08568853 0.08667674 -0.0030281097 0.0048936983
-0.06711382 -0.009587774 0.10453184 0.057230324 -0.05745626 -0.10849998 -0.09051424 -0.15603398
-0.09342786 -0.01699382 0.09585723 -0.0065584085 -0.13389981 -0.086240366 0.044669412 -0.09914442
-0.023288 0.05711556 -0.13524605 -0.044679336 0.0035699448 -0.013440473 -0.07583185 -0.09536757
-0.07885447 0.0015215607 0.17109022 -0.07149076 -0.09248376 0.028405393 0.022855202 0.064305544
0.09490808 0.0625312 -0.08565463 0.024428137 0.03354283 -0.013332799 -0.1404041 0.030872988
-0.026594944 -0.07568043 -0.103282824 0.0050336476 0.043392297 0.018749258 0.05029448 -0.19799478
-0.15053385 0.0119831 0.108353436 0.06406109 -0.08228259 -0.00084170885 -0.07346425 -0.081154756
0.019531643 0.09528757 0.1585474 -0.15439545 0.045504436 -0.055948783 0.06455288 0.11227538
0.006473731 0.18122362 -0.14075677 -0.10846229 0.11543321 -0.015878625 -0.028954655 -0.07995126
0.12635526 0.047380865 -0.025068624 -0.10083066 -0.11786029 0.033042457 0.09932369 -0.05089054
-0.007587915 0.1344829 0.025367372 0.09015348 -0.14225918 -0.18944454 -0.048138846 -0.18722858
0.05593066 0.2111073 -0.21000263 -0.103673026 0.018348072 0.06694696 0.115846306 -0.038292058
-0.08584594 -0.0471401 -0.014949587 -0.1479749 0.08045708 0.03392852 -0.09416763 0.056717206
0.15534085 0.060091734 0.018796358 -0.16471282 -0.028911088 0.12714934 0.13588817 -0.14916727
-0.12600873 0.16605832 -0.18691838 0.0070506725 -0.08247786 0.07060698 -0.24514832 -0.07519732
-0.009162175 0.19760509 -0.07168606 0.20937307 0.27018043 0.24470666 0.004860607 0.07008124
0.015164202 -0.09707943 0.020557284 -0.09921951 -0.10103604 0.053315006 0.018450787 -0.023742782

lstm.bias_ih_l0 f4 [200]
00000000: 164f e93d 2d50 8f39 d53a 1b3e d866 003d
00000010: 0286 e03d 4419 043d d0b1 34be e9ae bf3c
00000020: 9d72 943d e30f 48be abf7 96bd b660 78bd
00000030: 6ad1 ff3d abc7 563d a901 23bd 6d5e 27bc
00000040: 1879 84bd 95cc 06bd d03a e9bc 3dd8 3f3c
00000050: 1228 85bc 095e e93c 4e2d 3fbc 6590 ac3c
00000060: d0de 263e 5e31 d93d 1869 77bd d6b5 c83c
00000070: 46d6 4dbe 85ff c4bd 6ae9 fdbc 55ff d0bd
00000080: 913d b13d 92c8 e83c c26b 21bd 7c58 47bd
00000090: 71da d43e 2e43 f03c e236 b43e 231b 023d
000000a0: 87be 0fbd 3f31 3ebc 4125 a83c 7243 8abd
000000b0: 34cf a0bd dac3 75be 9177 2abd 3e4a 47be
000000c0: c23c 1bbd 3dbd 1f3c b4af afbd 7717 e5bd
000000d0: 550e c33d e9cc 4bbd efe2 093d 160e 22bd
000000e0: 1898 b83c acff 9bbd a3da 24be 2679 ec3c
000000f0: 228e d8bd a6ad 16be 0e06 843d 62f9 c33b
00000100: e3a1 e3bc 3caf 063e a0dc 04be b1ce 42be
00000110: 8750 2d3d eedb 3abc e3d2 893c 4795 61bd
00000120: 4015 54bd b1ef 043e 2f38 05be 01cb 583d
00000130: b4ca 763d b56c f13d 65ce 95bc 01db 8a3d
00000140: 8e56 febd 46e0 5abd 33f8 3fbd c350 0bbe
00000150: 88ca d23d 1537 56be 1f1c 2ebe 69a6 16be
00000160: fc03 c4bd 93d5 d7bd ee5c b7bd abac f43b
00000170: a29b 24be 5d6e d2bd dcd8 2fbe df29 31be
00000180: 33d9 583d 9644 55bd fd86 64bd aadd 133e
00000190: 7db4 74bd 7ad2 31bd 4aed 423d e924 083e
000001a0: 42ea eebb daac 82bc 6498 bc3d 5679 b6bd
000001b0: 837e 1bbd 6fe3 b73c a847 31be 722b 8cbd
000001c0: 9d7a 13be 1c4c 263d dfca 283d a6d5 6bbc
000001d0: c162 85bd 4e0b 503d 3b0b cf3d 839f e2bd
000001e0: 96e3 f33d a281 a83d d99c adbc bdf5 b73d
000001f0: 9aea 00bd fe62 64bd 1972 9e3d 2515 463d
00000200: 3675 113d 5bf0 2fbc 04fa 93bd b71c 3f3d
00000210: cd1e 3dbb 4bc7 8a3d 29e4 b3bb ed4e 7d3c
00000220: 3338 97bd 01b9 0f3d 9280 e03d 95cf 6fbd
00000230: 3ccf aa3d 1f47 843d cfa3 a13d a90b 3a3e
00000240: 8953 183c ec2a 373c 801d a13d 386a fdbc
00000250: a020 0abe deb3 973d b153 12be adbe f3bc
00000260: 3753 a13d 40e6 c13c 46b6 0bbd 2398 8f3c
00000270: 002d 073d 9175 dfbd 96c1 823d 78df 93bd
00000280: 98ee b7bd a4de 4bbe c42c f3bc a5e5 653e
00000290: 46e5 e0bd 8c16 f5bd 717a 54bb 5862 073e
000002a0: 6529 23bd 38e5 3b3e 269a 0f3e 62cd 0e3e
000002b0: 1ef3 a9bd 6b30 07bd 4fb0 64bd 9bc9 c8bc
000002c0: b9e3 04be 14d5 b83d 0b90 4cbd c55c df3d
000002d0: 9d7f 1bbe 6dcf 45be a40b c13b ae34 063e
000002e0: 1d51 bc3d c7c7 a6bd 1490 cd3e 20d8 edbd
000002f0: 2ae8 d73e d348 fdbc 6416 93bd 569b 81bd
00000300: ac73 24be f73a 5cbd b42c d2bd de8b 46be
00000310: eead dbbd 0613 44be 26c3 f5bd aab8 05bd
0.113920376 0.0002733482 0.15159161 0.03134808 0.1096306 0.032250658 -0.17645955 0.023398833
0.07248423 -0.1953731 -0.07371458 -0.060639106 0.124911144 0.052436512 -0.039796505 -0.010215384
-0.06468409 -0.03290995 -0.028470427 0.01170927 -0.016254459 0.028487222 -0.011668516 0.021064946
0.16295934 0.10605119 -0.06040296 0.024500769 -0.2010127 -0.09619049 -0.03099509 -0.10204951
0.08654321 0.028415952 -0.039409406 -0.04866837 0.41572908 0.029328909 0.35198122 0.03176416
-0.03509381 -0.011608421 0.020525577 -0.067511454 -0.07852021 -0.24000493 -0.041617934 -0.19461915
-0.03789974 0.009749708 -0.085784346 -0.11186116 0.09524218 -0.049755964 0.033663686 -0.039564215
0.022533461 -0.07617125 -0.16099028 0.028866362 -0.10573985 -0.14714679 0.06446467 0.0059806565
-0.027787155 0.13152784 -0.12974787 -0.19024159 0.042313125 -0.011404974 0.016824191 -0.055074003
-0.051778078 0.1298206 -0.13009714 0.052927975 0.060251907 0.11788312 -0.018286893 0.06780053
-0.12418853 -0.05343654 -0.04686756 -0.13605027 0.10292536 -0.2091945 -0.17002915 -0.14711918
-0.095710725 -0.10538783 -0.08953272 0.0074668727 -0.16074994 -0.102749564 -0.17172569 -0.17301129
0.052941512 -0.05206736 -0.055792797 0.14440027 -0.05974244 -0.043413617 0.047589578 0.1329533
-0.0072911093 -0.015951563 0.09208754 -0.08909862 -0.037962448 0.022447316 -0.17312491 -0.06844224
-0.14402242 0.040599927 0.041209098 -0.0143941995 -0.065129764 0.05079203 0.10109564 -0.11065581
0.11908643 0.082278505 -0.021192955 0.08982418 -0.031473733 -0.05575847 0.07736606 0.04836001
0.03551217 -0.010738458 -0.07225421 0.046658244 -0.002885747 0.06776293 -0.0054898453 0.015460712
-0.07383766 0.035088543 0.10962023 -0.058547575 0.08340308 0.06458878 0.07892572 0.1816851
0.00929726 0.011179667 0.07866955 -0.030934438 -0.13489008 0.07407354 -0.14289738 -0.029754007
0.078772 0.023669362 -0.034109376 0.0175286 0.0330019 -0.10911096 0.0638458 -0.07220358
-0.08981055 -0.1990915 -0.029684432 0.22450884 -0.109812304 -0.11967191 -0.0032421614 0.13221109
-0.0398344 0.18349159 0.14023647 0.13945535 -0.08298324 -0.03300516 -0.055832203 -0.024510195
-0.12977494 0.090250164 -0.049942058 0.10906366 -0.151854 -0.19317408 0.0058912802 0.13106033
0.09195159 -0.08143573 0.40148985 -0.11613488 0.42169315 -0.030918514 -0.07182005 -0.06328456
-0.1605975 -0.05376717 -0.10262433 -0.19389293 -0.10726534 -0.19147882 -0.12000112 -0.032646812

lstm.bias_hh_l0 f4 [200]
00000000: 5de1 e03d f3b8 243a 5698 ae3d d9aa d8bd
00000010: 2dc5 633e d282 82bd 2054 90b6 82a0 423d
00000020: 9b95 12be 12c0 b03b 14fa 083b d1ad 1bbe
00000030: 5e68 59bd f478 893e 0025 d7bd 05ae f03d
00000040: 3bec 0e3d 401e c33d 2131 7dbd 0eac cc3d
00000050: 8699 743d 92d2 023e 4e0c 0fbe 5297 1d3d
00000060: c78e a53d a0e3 c5bd ff88 67bc 6dcc 113e
00000070: 6a99 b43c 769a 86bd 5094 053d 2943 36be
00000080: 2546 083e 8fcc 89bc 40a6 0dbe e7db a9bc
00000090: 45f1 863e 0ed4 40bd fe9b 133f cf50 373e
000000a0: d3da 8a3d 849f 0abe a66e 76bd 998d 9e3b
000000b0: 448c 3ebe 695f 963c 1ab7 cf3d a84f f8bd
000000c0: 8a98 f0bd 2cd4 153d 7ea9 1d3d b621 773c
000000d0: bd32 7bbd b8f7 893d 4e5c f5bd e7fd 3b3d
000000e0: ca51 5b3c 3421 ebbd 4fa1 3dbe d81f 56bc
000000f0: 2ecc d0bd 9a5e 2cbc 428a 63bd b0b5 e93d
00000100: a319 febc 2db1 95bd 8c32 f0bd 59c1 34bd
00000110: ea64 d4bd ed07 653d d80d fb3d 2687 f7bd
00000120: 6021 18be 0477 003d e925 23be 32b3 dcbd
00000130: ccc4 403d bc3a fcbd 1c6b 19be 9967 16be
00000140: 8752 4dbd 921a 57bd 7410 953d d20b 773d
00000150: 2339 88bc 7883 eebd c0d5 343d 7907 babd
00000160: abdf 893d 1490 e5bd 5fdd 1dbe fd72 a0bd
00000170: 2fc0 e3bd 5c59 233d 908f 1bbe 6491 54bd
00000180: 826b 1a3e 1adf c9bd 2da6 4fbd 5ffb 973c
00000190: 910f c33d 5f5a 923d 3a37 86bb a7af b03d
000001a0: ca37 74bd de4f e4bc f70e 13bc c476 85bd
000001b0: 2727 353e 177a fcbb 9e3d 38be a95b cdbc
000001c0: 2d45 dbbb 2b40 52bc 3c80 803d 816f 8f3d
000001d0: 5ac9 4f3d 8ecb 92bd a41d 963d 8ed4 863d
000001e0: 921c 75bd 27c3 af3c c537 4a3d 138c 083c
000001f0: 1467 363d b337 043e 4c9e af3d d691 1c3d
00000200: a13b 3c3c 856f b43d acea e1bc 8cfe e33c
00000210: cbf9 acbc 2fdb 6e3d 3766 80bd 64ca 7c3d
00000220: 9045 8e3d 568e 7e3d 1112 fdbd 969b 06bd
00000230: 703b b3bd 1b9b 153e cb4c f6bd 1fd9 e63b
00000240: a192 d8bc 4b45 6fbd 3dc4 343d eb7f 69bd
00000250: 9968 143d ecba 98ba 3f48 c1bd 0118 ad3c
00000260: 9886 683d 2982 76bd 49b9 20bd 022f d8bc
00000270: 47ca c1bc fc7e 11be 7eff 923d a5b6 123d
00000280: 9d10 ba3d a66b 623d b399 93bd 6feb 3f3d
00000290: e1c2 913d 9bc5 d2bc 6d4a c5bd d692 12bd
000002a0: b34a c83d 47ac 11bd 9e33 5c3d e194 ddbd
000002b0: 12f7 ba3d 033d da3d 0e70 323e e8fe ff3b
000002c0: bbb8 0b3d f89f 0f3e 7af0 a4bd be3c e1bd
000002d0: b6ad f6bd 419d 0c3c 1c76 6dbd e9d3 f5bc
000002e0: b262 16be 8e6a 07be 041e 9d3e eaef 52be
000002f0: a493 c03e 4abf 223e 4382 12bd 863f 6bbd
00000300: d8c5 e93c 1b73 1cbe 5855 29be 302a a8bd
00000310: f96c 2d3d fa21 47be 5139 133d 02a7 e03c
0.10980485 0.0006283663 0.085251495 -0.105794616 0.22243185 -0.06372608 -4.301328e-06 0.047516353
-0.14314882 0.0053939903 0.0020901011 -0.15203024 -0.053078048 0.26850092 -0.10505104 0.117519416
0.034893256 0.09527254 -0.06181443 0.09993754 0.059716724 0.12775639 -0.13969538 0.03847439
0.08083873 -0.09662557 -0.0141317835 0.14238138 0.02204581 -0.0657243 0.032612145 -0.17799057
0.13308008 -0.016821174 -0.1383295 -0.02073474 0.2635595 -0.04707723 0.576599 0.1790192
0.06780019 -0.13537413 -0.060164116 0.004838657 -0.18608195 0.018356042 0.10142346 -0.12124568
-0.117478445 0.036579296 0.03849172 0.015083721 -0.061327685 0.06736702 -0.11980496 0.045896437
0.013386199 -0.11480942 -0.18518566 -0.013069116 -0.10195194 -0.010520602 -0.055551775 0.11411607
-0.031018084 -0.07309184 -0.11728391 -0.044129703 -0.1037081 0.05591576 0.122585 -0.120863244
-0.14856482 0.031363502 -0.1593243 -0.10776366 0.04706268 -0.1231589 -0.14982265 -0.14687957
-0.050127532 -0.052515574 0.07278529 0.060314007 -0.016628807 -0.116461694 0.04414916 -0.090834565
0.067321144 -0.11209121 -0.15416478 -0.07834432 -0.111206405 0.03988014 -0.15191483 -0.051896468
0.15080073 -0.09857006 -0.050695587 0.01855248 0.095244534 0.07146143 -0.004095939 0.08627253
-0.059623517 -0.027870115 -0.008975736 -0.06516793 0.17690717 -0.007704984 -0.17992255 -0.025068121
-0.006691596 -0.012832682 0.06274459 0.070036896 0.050729133 -0.07167731 0.07329872 0.0658351
-0.0598417 0.02145536 0.049369592 0.008334178 0.044531897 0.12911873 0.085751146 0.038225017
0.011488826 0.08810333 -0.02757772 0.027831338 -0.021115204 0.0583145 -0.06269496 0.061716452
0.06946862 0.06214746 -0.123569615 -0.032863222 -0.08751571 0.1460995 -0.12026366 0.007044926
-0.026437106 -0.058415692 0.04413246 -0.057006758 0.036232565 -0.0011652387 -0.09437608 0.02112961
0.056768984 -0.060182724 -0.0392392 -0.026389603 -0.023656024 -0.14208597 0.071776375 0.035818715
0.090852 0.055278443 -0.0720705 0.046855386 0.07117248 -0.025728991 -0.09633336 -0.035784565
0.09779873 -0.035564687 0.053760163 -0.10819412 0.09129156 0.10656168 0.17425558 0.0078123696
0.03411172 0.14025867 -0.0805368 -0.10997914 -0.120448515 0.008582414 -0.057973966 -0.030008273
-0.14686087 -0.13224241 0.30686963 -0.20599332 0.3761264 0.15893283 -0.03576876 -0.057433628
0.028536722 -0.15278284 -0.16536462 -0.082111716 0.042340253 -0.19446555 0.035943333 0.027423386

fc.weight f4 [1, 50]
00000000: cea5 8d3d 8b3a 543e c2d0 113e bc3f ca3d
00000010: dcbb 95be 4da8 86be ce59 c3bc 4a90 cebd
00000020: 79f7 5bbd cec9 ffbc c795 4abe 84eb a6bb
00000030: 41cb 50be 8892 8abe aa62 ee3c b6df 0e3d
00000040: 2856 1bbe 4f67 9bbd 285b 263e 12d9 87be
00000050: 8051 6a3e f9a5 1f3e 89d3 c2bd 0495 89be
00000060: d29e 0bbe c7f8 a93d 1aa1 1abd bd77 3cbe
00000070: a365 d23c 9f75 363e 1375 263e 57d6 61bd
00000080: 8114 39be 3f3c 8f3e b0fc d1bd 369a 81bd
00000090: 02a6 59be 8f44 9d3d f7bf d53e c01e 79be
000000a0: 128c 3f3d 8089 e13d e89c 26bd b734 3f3e
000000b0: f2a8 d6bc 7d61 5dbd 894b 263e 3b18 8cbb
000000c0: a603 c3bd 0dbb 88be
0.0691639 0.20725457 0.14239791 0.098754376 -0.29244888 -0.26300278 -0.023846533 -0.10086115
-0.053702805 -0.031224158 -0.19783698 -0.0050939936 -0.20390035 -0.2706492 0.029099781 0.034881316
-0.15169585 -0.07588064 0.16245711 -0.265328 0.22882652 0.15590657 -0.095130034 -0.26871502
-0.13634804 0.08299404 -0.037751295 -0.18405052 0.02568323 0.17818306 0.16255598 -0.05513605
-0.18074228 0.27975652 -0.102532744 -0.063282415 -0.21254733 0.07679092 0.4174802 -0.24328136
0.04676444 0.11012554 -0.04067698 0.18672453 -0.026203606 -0.05404805 0.16239752 -0.0042753494
-0.0952218 -0.26705208
